TrainedModel.ckpt (torch, 565520 bytes, 11 tensors)

encoder.weight f4 [97, 100]
000000 d2 3a 58 bf d0 3b 94 bf 1b 86 e6 3d 69 90 49 be
       -0.8446475 -1.1580753 0.11256047 -0.19683994
000010 91 c8 9b 3e 98 cd ec 3f 12 00 b2 bf 7e 3d c2 3f
       0.30426458 1.8500242 -1.3906271 1.5175016
000020 58 0b 78 be f4 bd e2 3e 47 ee 1e bf 28 49 3e be
       -0.24223077 0.44285548 -0.6208233 -0.18582594
000030 07 8d a1 bc bf 4a b2 3f 93 21 8d bf 43 32 4a 3f
       -0.019720567 1.3929061 -1.1025871 0.78982943
000040 e6 b9 e1 3e d9 74 6d 3f 05 11 44 40 54 24 40 3d
       0.44087142 0.9275642 3.0635388 0.046909645
000050 f2 68 06 bf 16 90 14 bf 62 9d 06 3f 70 cb 26 3f
       -0.52503884 -0.5803236 0.525839 0.6515417
000060 e2 ba 5b 3f d7 45 b5 3e 11 4b 20 40 c2 20 1e bf
       0.85832036 0.35404846 2.5045817 -0.61768734
000070 f8 21 9c 3f 45 05 0f bf ee 89 86 bf b3 57 8d bf
       1.2197866 -0.55867416 -1.0510843 -1.1042389
000080 63 5c f3 3e 1c 5e ac be 48 9f 1f 3c 87 3b 19 be
       0.47531423 -0.3366555 0.009742565 -0.14964114
000090 58 9f a7 bf 97 78 3f bc 8c 16 b5 3f 51 5b e1 3f
       -1.3095503 -0.011686466 1.4147506 1.7605993
0000a0 6f 58 7e bf 6d 80 99 be 58 b3 12 40 90 b0 4f bf
       -0.9935369 -0.29980794 2.2921963 -0.8112879
0000b0 ed 48 a3 3e c4 d6 d1 be a5 1e 4c bf 08 a2 35 bf
       0.31891575 -0.40984166 -0.7973426 -0.70950365
0000c0 bf ab bf 3d 25 d4 d0 3e c7 01 36 3e 2f 64 84 bf
       0.0935893 0.40786853 0.17774116 -1.0343074
0000d0 0a 68 bb 3e 36 7d 21 bb 83 bc 5a bf 12 94 b2 3d
       0.36602813 -0.0024641282 -0.85443896 0.087196484
0000e0 e8 40 7e 3e 67 8d 3e bf f1 33 87 3f c4 9a b6 bd
       0.24829447 -0.7443451 1.0562726 -0.08916238
0000f0 1b b5 69 be 3e ec 0b 3f 22 98 16 3f e8 ea 8d 3e
       -0.22822993 0.5465735 0.58825886 0.27718282
000100 35 6f 2f 3f 0b 71 73 3f 1c 88 5d 3f 0b 49 52 3f
       0.68529063 0.95094365 0.8653581 0.82142705
000110 60 22 32 3f 09 03 b8 3f 76 8d bf be b2 49 8f 3f
       0.695837 1.4375926 -0.37412614 1.1194365
000120 e1 61 90 3b 1f c2 0b bf 2f fa 67 bf 86 76 81 3f
       0.0044061993 -0.5459308 -0.90616125 1.0114295
000130 bb 74 2b bf 26 69 2e 3f d7 17 36 3f e7 5c 62 be
       -0.6697499 0.68129194 0.71130127 -0.22105752
000140 a2 55 14 bf c4 d8 4e 3f aa bb f5 3d d8 0b 1f 3f
       -0.57943165 0.8079951 0.11998685 0.6212745
000150 2d 2e 52 be 09 61 d1 3f 27 0b 51 bf 57 00 15 bf
       -0.20525427 1.6357738 -0.8165764 -0.58203644
000160 3d db f2 be be 58 c6 be c3 16 3b 3f 3f a6 b4 3e
       -0.4743289 -0.3873958 0.73081607 0.35283086
000170 b5 1d 4f bf e6 25 03 40 b8 8e da bd 9d c0 db be
       -0.80904704 2.0491881 -0.10671753 -0.4292039
000180 74 6e 84 bd cd 75 c3 bf 2e db 76 3f e5 e9 80 3f
       -0.0646638 -1.5270325 0.9642819 1.0071379
000190 93 76 c9 3f 28 77 06 40 96 ee f8 be dd df ce 3e
       1.5739311 2.1010227 -0.48619527 0.4040517
0001a0 4d df 34 bf 8b b3 49 3f 63 ba 7d 3f 95 b0 e7 be
       -0.7065323 0.78789586 0.9911253 -0.4525191
0001b0 6a 3e 40 3f 58 61 c1 3e 05 1a 21 bf 30 84 13 3f
       0.75095236 0.3776958 -0.6293033 0.5762358
0001c0 26 e1 99 be 8d e2 a0 3e 41 9b 87 bf 32 2a a0 bf
       -0.30054587 0.31422845 -1.0594255 -1.2512877
0001d0 c5 64 09 3f 74 b3 bb be af 0b 96 bf 62 0a 3a 3f
       0.5366939 -0.3666035 -1.1722316 0.7267209
0001e0 09 c8 54 3f e2 69 5b 3f b0 a8 a4 3f c1 3d 24 bf
       0.8311773 0.8570844 1.2863979 -0.6415673
0001f0 8b a8 54 3c c1 ba c3 bc 20 59 4a 3f f6 d9 93 bf
       0.012979637 -0.023892762 0.79042244 -1.1550891
000200 24 a2 ee 3f 26 49 ad 3e b1 2f d4 be af a8 15 3f
       1.8643231 0.3384487 -0.41442636 0.58460516
000210 fa 76 97 3f 1f 96 8e 3e d1 ca a1 be 35 53 5f 3f
       1.1833184 0.27848908 -0.3160005 0.8723634
000220 3a e4 b3 bf 28 ce dd 3f ef cf 10 3f b1 c0 a2 bf
       -1.4054024 1.7328539 0.5656728 -1.2715055
000230 9d 9d 99 be bd 7e 35 3f ee 66 68 be 58 ff fb 3e
       -0.30003062 0.7089651 -0.22695515 0.4921825
000240 07 f2 91 3f de a5 ae 3f 1a 94 00 3f 2f 30 88 bf
       1.1401986 1.3644369 0.50225985 -1.0639704
000250 3a 70 ed 3d f9 74 6c bf c1 a7 2e bf 80 89 13 3f
       0.11593671 -0.92365986 -0.6822472 0.57631683
000260 7c dc 07 40 69 fc 80 3f 0c 71 a4 be ea e7 cb bf
       2.1228323 1.007703 -0.32117498 -1.593015
000270 8d 37 db be aa b9 c9 bf 70 cb f5 bf 52 bd 5e 3e
       -0.4281582 -1.5759785 -1.9202709 0.21751907
000280 29 1a 6b be d5 ac 06 3f b5 6f ad 3f 90 3a ac 3f
       -0.22959198 0.5260747 1.3549715 1.3455372
000290 b4 7d 5e 3f e8 02 3e bf c2 b9 28 3f 81 6a b0 3e
       0.8691056 -0.74223185 0.65908444 0.34456256
0002a0 f9 f8 5b bf 9f 53 12 3f 80 35 3c 40 eb c6 1d bd
       -0.8592678 0.57158846 2.9407654 -0.03851978
0002b0 39 f4 08 40 be 4c b1 bf a8 6e 66 be 36 3e ce be
       2.1399062 -1.3851545 -0.2250315 -0.40281838
0002c0 dd c9 47 3f c8 c4 b5 3e d8 6e 38 3e 70 39 8c 3f
       0.78042394 0.35501695 0.18011034 1.0955029
0002d0 96 de bb be ec 88 24 bf 29 5f fa 3e 9c cc a3 3f
       -0.36693257 -0.64271426 0.48900726 1.2796817
0002e0 82 00 fc 3e 5c 01 2c 3f 46 5a 74 3e d8 72 cf be
       0.49219137 0.67189574 0.23862562 -0.40517306
0002f0 0f 8a fa 3f c4 c2 45 be a9 06 ed 3f 1a 3d 29 3f
       1.9573382 -0.19312578 1.8517658 0.6610886
000300 d3 fc ac bf d3 ec 09 3f 2a ef 98 bd b2 33 8f 3f
       -1.3514656 0.5387699 -0.07467492 1.1187651
000310 c0 b7 98 3c c1 c8 f0 be dd 8b ad be 49 90 a0 3f
       0.018642306 -0.47028163 -0.3389577 1.2544032
000320 01 c6 b9 3f bf 4c a1 bf cd 35 07 bf 94 01 e5 bd
       1.4513551 -1.2601546 -0.5281647 -0.11181942
000330 12 b1 71 3e 5f 81 e7 3c 6c 31 ae be 98 d9 84 3f
       0.23602703 0.028259931 -0.3402208 1.0378904
000340 6f b4 4c bf 68 99 9d bd aa 95 d5 bf f2 b5 8a 3f
       -0.7996282 -0.076952755 -1.6686299 1.0836775
000350 7d 37 e0 3f b6 ea 60 bf a8 20 42 3f 1e d8 19 be
       1.7516934 -0.8785814 0.7583108 -0.15023848
000360 ce d9 c3 be 80 f8 b6 bf 84 3e 45 3f d0 16 a7 3e
       -0.3825211 -1.4294586 0.77048516 0.32634592
000370 ed 07 2d bf 2e 83 c3 bf 83 c3 1e be aa 85 b1 3e
       -0.6759022 -1.5274408 -0.1550427 0.3467229
000380 9b 6d bc be 52 16 0e bf c6 61 6f 3f ca 84 98 3e
       -0.36802372 -0.5550281 0.93508565 0.2978881
000390 d3 e8 bd 3f 73 48 aa bc 0a ed 84 bf 84 ec f4 be
       1.4836677 -0.0207865 -1.0384839 -0.47836697
0003a0 11 7e 0b bf fc a5 48 3e 48 d0 66 bf 20 df 6e bf
       -0.5448924 0.19594568 -0.9016156 -0.9330921
0003b0 10 c0 68 3f 77 0f e6 3e 40 57 0e 40 76 e9 d3 bf
       0.90918064 0.44933674 2.2240753 -1.6555622
0003c0 41 5e 8a bf 28 61 26 3e 5b 1e b0 3f 59 a0 26 3f
       -1.0810014 0.16248 1.3759264 0.6508842
0003d0 43 cf d4 3e 32 38 9e be 98 9d 0d 3f b4 76 43 be
       0.41564378 -0.3090225 0.55318594 -0.1908825
0003e0 8c 6e e3 bf 7c c9 8d bf 0a 32 08 bd 61 aa 10 40
       -1.7768111 -1.1077113 -0.033250846 2.260399
0003f0 1c f4 bd 3e e8 a4 3a 3f 78 ea 0c 3f f7 d9 ee bf
       0.37100303 0.72907877 0.5504527 -1.8660268

gru.weight_ih_l0 f4 [300, 100]
000000 29 8f c2 3d 22 1a 6b bc e6 fd 60 3d 68 6f 8b bd
       0.09499962 -0.014349492 0.054929636 -0.068083584
000010 75 d2 60 3c 80 52 df 3d 4d f4 e0 bb 8c cb 88 3d
       0.013722052 0.109044075 -0.0068650604 0.066794485
000020 fa a7 82 3c 63 9f 3a 3e a8 c5 c3 bd bc b7 1c 3d
       0.015949238 0.18224864 -0.09559184 0.03826116
000030 8c ba 09 be 3a 60 a5 3c 95 34 8a 3b 8c fc eb bd
       -0.13450068 0.020187486 0.004217694 -0.11522779
000040 cd fe a8 bd ad 47 b0 bd 35 95 5d 3d 31 9b 97 3d
       -0.082517244 -0.08607421 0.054097373 0.07402647
000050 ce ee 04 bc ee c2 18 3c 70 70 0a bc b4 24 5b bd
       -0.008113576 0.009323819 -0.008449659 -0.0535018
000060 b8 2a d4 3d 46 1e fc 3c 7b 7b 0e 3d c3 c7 23 be
       0.103597105 0.030776154 0.03478573 -0.15994172
000070 11 78 a0 bd 92 9a 5f 3e 86 58 1f bc c0 61 1b bd
       -0.07835401 0.21836308 -0.0097256955 -0.03793502
000080 d3 0c 14 3d 86 b6 49 bd e4 73 00 be bc e8 b8 bd
       0.036145043 -0.049246334 -0.12544209 -0.090287656
000090 5d 87 75 bb fa 43 13 bd a3 84 b4 bd bc 69 79 3c
       -0.0037464716 -0.0359535 -0.08814361 0.015222963
0000a0 6b 5f 86 bc cd fa 56 3d c5 c6 d3 3b 7b 14 11 bd
       -0.01640292 0.052485276 0.006462904 -0.035419922
0000b0 58 8d 6b 3d 7f a3 02 3d b3 9f 44 3d 5a 26 90 bd
       0.057507843 0.031894203 0.048003864 -0.07038565
0000c0 db 55 79 bd e7 50 96 3d 52 8a d7 bb a7 65 af bc
       -0.060872894 0.0733965 -0.0065777684 -0.021410776
0000d0 e0 82 e8 3c 06 88 bd 3d 03 2e 35 bb 5e 58 72 3d
       0.028382719 0.0925446 -0.0027645833 0.059166305
0000e0 b1 a4 7d 3c 5a ca 27 be ae 3b 04 3e eb 78 2c bd
       0.01548116 -0.16385785 0.12913391 -0.042107504
0000f0 67 f9 8f bd f5 d6 1b 3c 21 d5 3d 3e e4 52 40 3e
       -0.070299916 0.009511699 0.18538333 0.1878162
000100 e1 72 17 be b6 fb 7b bd 77 e0 f3 3d 08 c7 0f 3e
       -0.14789917 -0.061519347 0.11908048 0.14040768
000110 cf fe 20 be fd a4 14 be 4c d7 86 3d 5c bd ac 3c
       -0.15722202 -0.14516063 0.06584033 0.021086387
000120 12 1f 9d bb 63 2d 3b 3d da c4 9e 3d 3f 20 23 bd
       -0.0047949636 0.04569758 0.0775239 -0.039825674
000130 5d 37 fa 3c 19 15 ed 3d ce 30 04 be 05 56 3b 3d
       0.030543977 0.1157629 -0.12909243 0.04573633
000140 2d dc e0 bd 9a 36 4a 3d f0 21 20 be ef a2 81 3d
       -0.10979495 0.04936848 -0.15637946 0.06329905
000150 51 ee 3d be a7 c4 f4 3d 55 0f 08 bd 1a b0 1d 3e
       -0.18547942 0.11951571 -0.033217747 0.15399209
000160 f8 47 1a 3b 43 c3 e6 3c 75 fa c0 3d 6d 2a b3 bc
       0.0023541432 0.02816928 0.09422771 -0.021870816
000170 01 44 6f 3d 37 58 89 3c df 69 0e 3e 95 db bb 3c
       0.058414463 0.016765697 0.13907574 0.022931853
000180 2f 6d 89 3d 8e 3e f9 bb 5c 3b 82 bd ae 15 6b 3e
       0.06710278 -0.007606334 -0.06358978 0.22957489
000190 f5 43 f3 3d c1 77 18 3c 37 8a ba 3c 26 5c 18 3e
       0.11878196 0.009305895 0.022770984 0.14878902
0001a0 c0 df ef bc 53 de d7 3c 9e b3 8c 3d 31 1c b1 3d
       -0.029281497 0.02635113 0.06870197 0.08647955
0001b0 00 6d 44 bd 1f ea f8 bd ce 6a 99 39 2f 7e 21 3e
       -0.047955513 -0.1215403 0.0002926201 0.15770791
0001c0 1e f9 76 3d 49 5d 07 be 47 37 8c 3d 07 43 fa bd
       0.06029617 -0.13219179 0.06846481 -0.12219816
0001d0 15 94 63 bd 88 00 6e 3d bc ac a5 3d 6d fc f9 bd
       -0.055561144 0.058105975 0.08089587 -0.122063495
0001e0 3d 23 62 3d 24 88 0f bd 11 6e ee bd 59 fd 6b 3d
       0.055209387 -0.035041943 -0.11642087 0.057614658
0001f0 6e f8 19 be 79 aa 8b bc 06 29 65 3a b6 a0 8c 3d
       -0.15036175 -0.017049061 0.00087417697 0.06866591
000200 05 99 4e 3e ca 67 b2 bd e2 89 9a bd bf be 92 3d
       0.2017556 -0.087112024 -0.0754583 0.07165288
000210 16 b1 c4 bd 62 27 ff bc 48 13 51 bd a7 bc 82 bd
       -0.09604089 -0.031146709 -0.05104378 -0.06383639
000220 a4 6d 3c bd 11 f2 1b 3a 31 69 60 3d b0 07 77 bd
       -0.046003 0.00059488515 0.05478782 -0.060310066
000230 c6 a5 90 3d 7b ce 40 bd c8 cf c7 bd 44 ff 13 bd
       0.07062869 -0.047071915 -0.09756428 -0.036132112
000240 53 74 3d 3c 46 26 b5 bd 2a 23 d1 bd c2 96 8c 3c
       0.011563378 -0.08845191 -0.10211785 0.01716173
000250 62 72 80 bd da 47 b3 3d a9 aa 4f 3a 15 7e 19 bc
       -0.06271817 0.08753939 0.00079218537 -0.009368439
000260 2d 0b 00 bd 04 ac 30 3d 65 ba b0 bc 4f a8 1c be
       -0.031260658 0.043132797 -0.021573255 -0.1529858
000270 c5 ea de bc 97 2e 6b 3d 68 d0 97 3d 49 ea c8 bd
       -0.027211556 0.05741748 0.07412797 -0.09810311
000280 c9 00 f5 bd e4 82 32 bc 82 fe 44 bd de 1a d1 3a
       -0.119630404 -0.010895465 -0.04809428 0.0015953442
000290 bf bb 22 be 7a 29 fa 3d 49 20 e5 bc 05 9e f1 bc
       -0.15891932 0.12214942 -0.027969496 -0.029494295
0002a0 1c 9b 32 bb 46 09 6c bd 92 bb 2d 3d d9 50 af 3d
       -0.0027253097 -0.05762603 0.04241521 0.08560342
0002b0 fd b9 4f 3d 7e 0a 8c bc 7e 34 0b 3d 36 85 ce bd
       0.05071448 -0.017094847 0.033985607 -0.10084002
0002c0 bc cb 1e 3e 1b 00 fa 3d a7 fe 0c be 29 03 d6 3b
       0.15507406 0.12207051 -0.13769017 0.0065311384
0002d0 96 64 92 3d 5e a7 68 3c f9 ed 29 3c 18 19 b7 bd
       0.071480915 0.01420006 0.0103716785 -0.08940333
0002e0 ad bb d1 3d 9f 7a 60 bd ed 1b e2 3a bf 75 03 3c
       0.102408744 -0.05480444 0.0017250754 0.008023678
0002f0 86 f1 32 3d 21 39 0a 3d 48 da a5 bc ea 2a 8f 3c
       0.043687366 0.03374589 -0.020245686 0.017476518
000300 78 31 dd 3d 4d c8 cc 3d 3f d6 64 bc e8 e0 ed 3d
       0.10800451 0.09999142 -0.013967096 0.11615163
000310 10 1a 22 bd 80 54 04 b9 c1 35 77 3d 0d 15 53 3c
       -0.039575636 -0.0001261998 0.060353998 0.012883437
000320 3b 22 24 bd 8f 5e be 3c 89 0c c5 3b 4d c0 0f bc
       -0.040071707 0.023238448 0.006013457 -0.008773875
000330 b5 57 a9 bd 8e 8a 7e bd 67 5f 26 be 96 51 a5 bc
       -0.08268682 -0.062143855 -0.1624733 -0.020180505
000340 06 9e d2 bc e3 77 39 3e 0d da 34 bd 13 df 27 3d
       -0.025710117 0.1811214 -0.044153262 0.040984225
000350 a8 5c 78 bd f2 07 51 3d b8 7a 02 be 9c ba 1d be
       -0.06063524 0.051032968 -0.12742126 -0.15403217
000360 9b 02 58 3d 16 88 81 3d 28 65 a3 bd 04 f2 c3 3d
       0.05273686 0.063247845 -0.079782784 0.09567645
000370 a5 ba d6 bd 4a 6d 99 3c 37 d4 6e bd 0c 22 c7 3c
       -0.10484818 0.01872887 -0.058307853 0.024308227
000380 7f 30 b9 3d 1d e0 d4 bd 8a 8c fc 3d d3 0a 01 bd
       0.09042453 -0.10394309 0.12331493 -0.031504463
000390 8d bf 48 3d 19 5d fd 3d 1d 1d 99 3d a5 3e 36 bc
       0.049010802 0.123712726 0.07476256 -0.011123334
0003a0 ea db 30 3d fe 8e fa 3b de 01 25 3d 6a 1e 3c bd
       0.043178476 0.0076464405 0.040284984 -0.045927443
0003b0 55 0a 94 bd 28 84 79 3c c6 d8 4a bd 19 92 48 3d
       -0.07228533 0.015229262 -0.049523138 0.048967455
0003c0 ab 84 2a bd b8 f0 a6 bc 36 28 b4 bd 74 06 a8 bd
       -0.04163043 -0.020378456 -0.08796732 -0.08204356
0003d0 c9 34 13 3d 99 93 6b bd 13 e9 b3 3b 7e 8f 5e 3d
       0.03593901 -0.057513807 0.005490431 0.054336064
0003e0 da a6 eb 3c 92 c8 c7 3d f2 59 f8 bc cb 2f 95 bd
       0.028766084 0.097550526 -0.030316327 -0.072845064
0003f0 3a ba 18 3d eb 4e 27 be 51 38 20 3c 8b 91 78 bd
       0.037286974 -0.16338699 0.009779052 -0.060685676

gru.weight_hh_l0 f4 [300, 100]
000000 a8 d0 11 bc 76 ea 97 3c 9a 5f 9f 3d d1 a3 0b 3e
       -0.008899845 0.018544417 0.077819064 0.1363671
000010 af 55 a2 3d 20 d4 67 3c e9 2a 8f bd 8c 19 99 bc
       0.07926499 0.014149696 -0.06990606 -0.01868894
000020 1c 32 2c 3d 1e 32 a9 bd 2f 82 ae bd 5f d8 1f bd
       0.042039976 -0.08261512 -0.08520924 -0.039024707
000030 f9 98 67 3d 41 04 c5 bc 80 f0 d5 bc 5e 54 96 3c
       0.05654237 -0.02404988 -0.026115656 0.018350776
000040 a6 58 ca 3d 07 7d e1 3c 1c d9 ae 3c 2e 34 9e bd
       0.098801896 0.027525438 0.02134376 -0.07724796
000050 55 64 d4 bd 73 4a 23 3e db 6a d9 3d 65 aa 31 bd
       -0.10370699 0.15946369 0.10616084 -0.04337539
000060 dc f4 56 3d ee 94 1f be b0 52 5f bd 64 29 81 3d
       0.05247961 -0.15584156 -0.054522216 0.06306723
000070 29 cc 2f 3d f2 32 d7 3d e7 36 95 bd 48 aa aa bc
       0.04291931 0.10507764 -0.072858624 -0.02083315
000080 a1 36 e2 3c cd 59 f1 bc 7d b1 a7 bc b2 cb 69 bd
       0.02761394 -0.029461766 -0.020470375 -0.057079025
000090 13 4c 0e 3e 25 a5 bc 3d c6 06 b6 bd 2f 2f c3 bc
       0.13896208 0.09211186 -0.08888011 -0.02382621
0000a0 f2 a4 a4 bd a7 9f 9c bd bf a7 51 3d 08 a3 3c 3d
       -0.08039273 -0.07647639 0.051185366 0.046053916
0000b0 fc 1b c7 bc 23 22 af bc 89 0c 0b bd 6c c5 a3 3d
       -0.024305336 -0.021378582 -0.0339475 0.079966396
0000c0 4d 21 8c bc 31 f0 9e bd 25 44 e9 3d 0b 21 d8 bd
       -0.017105723 -0.077606566 0.11389951 -0.105531774
0000d0 30 53 6c 3d 95 5c d8 3c a2 c0 23 3d bf ab b9 3d
       0.05769652 0.026411334 0.03997863 0.09065961
0000e0 24 dd 70 bc 0d cd 58 3b e4 ab 32 3d d8 8e e1 bd
       -0.0147011615 0.0033081204 0.04362096 -0.110135734
0000f0 86 13 a4 bc 35 a1 7f 3d 1a 44 9e 3d ff f6 8b bd
       -0.02002884 0.0624096 0.07727833 -0.0683422
000100 ef 79 00 bd 5f 56 5b bd 14 da ad bc 69 bd e3 bd
       -0.031366285 -0.053549167 -0.021222152 -0.111201115
000110 49 34 a4 3d 28 48 54 bc ea ed b6 bb f2 91 0c bd
       0.08017785 -0.0129566565 -0.005582561 -0.03431887
000120 c5 d3 9d 3d c6 5f b6 bd c5 85 a0 bd ec 16 13 bd
       0.077064075 -0.08904986 -0.078380145 -0.035910532
000130 3a b8 3f bc 4c 5b 33 be 27 32 dc 3a 9f a2 1b 3e
       -0.011701638 -0.17515296 0.0016799615 0.15198754
000140 b6 af 9d 3d 46 d2 82 3d 9d c7 0d 3d 09 c8 c3 3d
       0.0769953 0.06387763 0.034614194 0.09559638
000150 18 59 de 3d b5 01 e2 bc 23 39 9a 3a 03 66 fe bd
       0.10856837 -0.027588705 0.0011766296 -0.12421801
000160 51 df 2f bc 4b d9 9c 3d 60 50 d7 3c 64 e2 24 be
       -0.010734395 0.07658633 0.026283443 -0.16101986
000170 b6 f8 b0 bb ca 57 6c bc 4c 7d 03 be e1 2a 1c bb
       -0.0054007424 -0.014425227 -0.12840766 -0.0023829269
000180 b0 f9 42 3c 59 94 9a bc c9 44 85 bc 4f a7 7f bd
       0.01190035 -0.018869566 -0.01626815 -0.062415417
000190 8d 85 2d bd 57 4c b1 bd 34 41 71 3d 3d 0f ea 3d
       -0.042363692 -0.08657139 0.058900073 0.11428688
0001a0 cf d4 53 bd 5f e7 9b 3d fa d3 95 3c 6c d1 1b bd
       -0.051716622 0.0761249 0.018289555 -0.038041517
0001b0 28 71 99 3b 2e 10 93 bc 0d e7 fe bc 16 23 83 bd
       0.0046826787 -0.017952051 -0.031116033 -0.064031765
0001c0 4f 46 77 3d a8 ed 70 3d 5e 28 a9 3d b9 09 57 bd
       0.060369786 0.058820397 0.082596526 -0.052499507
0001d0 5d c6 9d bd 39 e2 6b 3d 77 a7 9d b9 b8 34 88 bb
       -0.077038504 0.05758879 -0.00030070145 -0.004156675
0001e0 76 c1 21 bd d3 72 c5 3a 7e a2 7b bd 81 10 7c 3c
       -0.03949114 0.0015064128 -0.06143426 0.015384794
0001f0 3b 2d 97 3d 2d 8b 88 3d 3c 28 b0 3c f3 7a b1 bc
       0.07381674 0.06667171 0.02150356 -0.021665072
000200 eb 1a b9 3d b7 c7 00 3d 84 71 50 bc e9 48 c2 bc
       0.09038337 0.031440463 -0.012722377 -0.023716407
000210 61 f7 97 3d df d7 67 3c 39 ad c8 3c e5 44 55 bd
       0.07420231 0.014150589 0.024496661 -0.052067656
000220 4f e5 c7 bd 29 50 71 bd 6c 27 ea bc 6d e3 38 bb
       -0.09760534 -0.058914337 -0.028583251 -0.0028211728
000230 d2 35 a7 bc a0 df 35 3c 15 55 a8 3c 10 67 90 bd
       -0.020411406 0.01110068 0.020548383 -0.070509076
000240 a4 cc 8f 3d a8 18 a7 bd bc 9e a1 3d 2d 9e b1 3c
       0.07021454 -0.08159 0.07891604 0.02168187
000250 57 9b 5e bc 76 bd bd 3d 47 de 64 3c c6 11 de 3d
       -0.013586841 0.092646524 0.013969011 0.10843234
000260 e5 4f 98 bd f9 3c fb bc 7a 76 8d bc 24 57 54 bd
       -0.07437114 -0.030668722 -0.017268408 -0.051840916
000270 1e f6 76 3d 26 ed 66 3d b0 cd 83 3d 7d cd 4a bd
       0.06029331 0.056378506 0.06435716 -0.049512375
000280 65 de 2d bd 69 17 6e bc 82 eb b5 3d 33 ce ab bc
       -0.04244842 -0.014531949 0.0888281 -0.020972347
000290 d6 ad 7a bc 0a c8 0b 3e 75 d8 9f bd 31 e9 69 3c
       -0.015300235 0.13650528 -0.07804958 0.014276789
0002a0 00 b1 db 3a aa fc 55 3d 86 54 a1 bd e3 ba bd bd
       0.0016761124 0.052242912 -0.0787745 -0.092641614
0002b0 19 fc 83 3c 0e ef 05 be ed 5b 08 3d a6 7f 49 3d
       0.01611142 -0.13079473 0.033290792 0.049194
0002c0 a8 14 b3 3b ff 6c 91 bd 38 78 51 bd d5 f1 15 3d
       0.005465109 -0.071008675 -0.05114004 0.036607582
0002d0 76 f3 63 3c 92 52 14 3d 5f 7f 30 bc a6 cd 5e bc
       0.013913026 0.036211558 -0.010772555 -0.013598835
0002e0 f1 ca 4d 39 b3 83 2a 3d 36 39 a7 bd 98 e6 e5 3c
       0.00019625925 0.041629504 -0.08165209 0.028064057
0002f0 57 d4 a5 bd b9 e3 41 bd 99 b9 c2 3d 4f 4d ba 3d
       -0.08097141 -0.047336314 0.09508056 0.09096777
000300 85 2c 94 bd cd 98 c4 3d e5 31 66 3d 19 c2 23 3d
       -0.07235054 0.09599457 0.056199927 0.039980028
000310 4b e4 65 bd f5 24 f6 bc b9 ec 12 bd 63 21 67 bd
       -0.05612592 -0.03004692 -0.035870288 -0.056428324
000320 a8 4f fb 3c 32 9b b9 bc 9b 72 b8 bd 07 ba 8f bd
       0.030677631 -0.02265701 -0.09006234 -0.07017904
000330 c9 32 cc bd 44 cd ae 3c a0 4c 85 3d 1a 70 09 3e
       -0.09970624 0.021338113 0.06508756 0.1342167
000340 12 fe b5 3c ef f3 6d bd d0 2b 04 3b 18 5f 0c 3e
       0.022215877 -0.05809396 0.0020167716 0.1370815
000350 83 a3 d4 bc d9 84 11 bd ed 27 06 bc 99 ea 6c bd
       -0.025956875 -0.035527084 -0.00818823 -0.057840917
000360 78 c9 5e bd 54 11 89 3d fc cd 71 3d de 52 27 3c
       -0.054391354 0.06692758 0.059034333 0.010212628
000370 98 62 0f be 4a 7b d1 bc 4d 35 c1 3d 97 e5 43 bd
       -0.14002454 -0.025571484 0.094339944 -0.047826376
000380 98 99 18 be 52 85 f4 3c cc 87 96 bd 66 73 a7 3d
       -0.14902341 0.029848728 -0.0735012 0.081763074
000390 33 b3 ce bd 5e 53 d8 bb 5c da b1 bc 48 0e f8 bd
       -0.10092773 -0.006601735 -0.021710567 -0.12112099
0003a0 64 98 e5 bc 9a d8 24 3d 10 7d cb bc 22 ce 9c bd
       -0.028026767 0.04024563 -0.024839908 -0.07656504
0003b0 79 bb 82 3d cb fc 0b 3d 03 70 c7 bd 4e 67 d9 3d
       0.06383414 0.03417663 -0.097381614 0.10615407
0003c0 93 fa c4 3d ec da 16 3e 10 e6 a7 3d 46 b0 00 3d
       0.09618106 0.1473195 0.08198178 0.031418107
0003d0 15 e8 81 bc 5b 11 82 bd 5d 01 cf bd e5 75 2f bc
       -0.015857736 -0.063509665 -0.10107682 -0.010709261
0003e0 3e e2 f7 bb fe ee 8d bd 88 46 29 bd 84 fb 4c bc
       -0.007564812 -0.0693035 -0.04132703 -0.012511138
0003f0 97 61 b2 3d fa 10 0f 3e 6f d9 8f bd 32 a8 04 3e
       0.0871002 0.1397132 -0.07023894 0.12954786

gru.bias_ih_l0 f4 [300]
000000 b4 5b 0d 3d e7 b3 da bb 2a 4b ab 3d bd fd da bc
       0.034511283 -0.006674278 0.08363946 -0.02673232
000010 3b 43 f7 bc f0 36 4f 3d f5 26 50 bc 20 5c c1 bc
       -0.030183425 0.0505895 -0.012704601 -0.023603499
000020 5d ac 4a 3d 88 9e 7d bc 73 6a 02 3e be 77 9c 3d
       0.049480785 -0.015479691 0.1273592 0.076400265
000030 1b a0 82 3c 92 a5 99 3d 15 50 cd 3c 24 2a 74 3d
       0.015945485 0.07502283 0.0250626 0.0596105
000040 e8 12 92 bb 45 a1 4e 3d f5 58 3e bd 14 ee b6 3d
       -0.00445782 0.050446767 -0.046471555 0.089321285
000050 93 55 de bc dc a2 94 3c 15 c1 8f 3c 5e fb 08 3d
       -0.027140414 0.018144064 0.017548123 0.033442847
000060 59 89 93 3b e0 0d 67 bb 2c 2d 0e 3e 75 a7 0d 3d
       0.004502457 -0.0035256073 0.13884419 0.034583528
000070 77 ae fc 3c b6 33 7a bd dc 40 dc 3d 93 33 b5 3d
       0.03084491 -0.06108447 0.107545584 0.088477276
000080 ec 57 bd bc 6b 21 3b 3d 14 c0 1c 3c 0f 97 04 3e
       -0.023113213 0.045686167 0.009567279 0.1294825
000090 ea ef e0 3c 3e 64 04 3d 61 31 07 bd d8 01 82 3d
       0.02745815 0.03232216 -0.033006076 0.06348008
0000a0 44 0f fe 3d be 60 af 3d b8 51 bd bc 91 83 52 bd
       0.124052554 0.08563374 -0.023110256 -0.051395003
0000b0 62 12 c8 3c 75 1b 02 3e 5a c3 f3 3d a3 60 a4 bd
       0.024422828 0.12705787 0.11902495 -0.080262445
0000c0 34 83 f5 3d dd 98 0d 3e 4f af 20 3d 80 20 99 bd
       0.11987916 0.13827844 0.039229687 -0.07476902
0000d0 91 74 4b 3c 34 c6 d9 3b a3 ed f3 3c 1b 7c 5a 3d
       0.012417928 0.006645942 0.0297764 0.053341012
0000e0 e5 73 4e 3d 17 cc 7f 3d 56 47 e3 3d e4 0d 85 ba
       0.050403494 0.062450495 0.110975906 -0.0010151234
0000f0 f5 b1 b6 3d ce 72 08 bd 5c 9a 05 3e 15 cf 91 3d
       0.08920661 -0.03331261 0.13047165 0.07119576
000100 2f 9b e3 3d 8c 2f 80 3c 43 ff 8e bc 4f dc 04 3e
       0.11113583 0.015647672 -0.017455703 0.12974666
000110 30 dc ee bc e9 25 e1 3d 6b b8 a0 3d 0b d3 bb 3d
       -0.029157728 0.10993559 0.07847675 0.091711126
000120 2c ee b1 3d 46 52 ca 3c d4 88 86 bc b3 77 3e 3c
       0.08688006 0.024697434 -0.016422667 0.011625218
000130 be 51 60 ba 4a 80 47 bc 59 55 39 bc 9b 86 89 3d
       -0.00085571024 -0.012176583 -0.011311852 0.06715127
000140 a5 05 58 bd db f3 e2 3c 6f 46 dc ba 85 88 94 bc
       -0.052739758 0.02770417 -0.0016805659 -0.018131504
000150 7f d1 a9 3d 97 6c b6 bc 40 98 b0 3d 5c d7 be 3d
       0.08291911 -0.022268577 0.086227894 0.0931842
000160 43 91 99 bb df 0d fc 3d 2f 33 b5 3d a9 a1 c6 3d
       -0.004686506 0.12307333 0.08847653 0.09698803
000170 50 bc 13 ba 4b e8 e1 bc 35 60 35 3d 8f e4 8b 3c
       -0.0005635666 -0.027576586 0.044281203 0.017076759
000180 9e b9 29 3d 83 cd a2 bd 23 4e 17 3c 6d 14 2d 3d
       0.041436784 -0.079493545 0.009234938 0.042255808
000190 c9 c6 27 be 18 f1 de bb d7 1b 70 3c 07 50 1c be
       -0.16384424 -0.006803643 0.014655075 -0.15264903
0001a0 88 9a 98 bd 83 ad 12 be 96 25 fa bd 6a fd 7d be
       -0.074513495 -0.14324002 -0.122142 -0.24803701
0001b0 8f 9e 8d bd 12 84 67 be d4 22 b1 bd dd 88 41 bd
       -0.06915008 -0.22608975 -0.08649221 -0.047249664
0001c0 3d 58 ce bc 00 28 19 be 6e 09 30 be ee 10 5d bd
       -0.02518856 -0.14956665 -0.17191097 -0.053971224
0001d0 bf df 5d be 26 d4 ea bc 53 c8 3d be 4b 28 22 be
       -0.21667384 -0.028665613 -0.18533449 -0.15835683
0001e0 f9 d5 7f bd 16 a5 03 be 82 23 f7 bd f4 80 21 bd
       -0.06245992 -0.12855944 -0.120673195 -0.03942962
0001f0 4c c8 7c bd cb 59 ca bd 8a 30 28 be 54 fb 35 bd
       -0.061714455 -0.09880408 -0.16424766 -0.04442914
000200 4f 06 3d be 62 40 d6 bd 7d fe 9a 3b 07 47 94 bd
       -0.18459438 -0.10461499 0.0047300444 -0.0724011
000210 00 19 e1 bd 5d 6d 9e bd 74 ec 26 be e0 cf ce bd
       -0.109910965 -0.07735703 -0.16301137 -0.10098243
000220 44 ba 1b bd 5e 7c d8 bd f2 18 47 bd c1 b6 ce bd
       -0.038019434 -0.10570596 -0.048607774 -0.10093451
000230 30 3c b0 bd de ae cc bd c9 6b 5c bd 01 9e 28 be
       -0.0860523 -0.09994291 -0.05381373 -0.16466524
000240 f9 c6 5f be cb 06 68 bc e6 98 1b be 49 82 54 be
       -0.21853246 -0.014161776 -0.15195045 -0.20752825
000250 ac a3 1b 3d 0f 07 0f be bb d3 b5 bd ea c7 83 be
       0.037997887 -0.13967536 -0.08878275 -0.2573846
000260 bf 60 24 be b8 93 d0 bd 44 33 33 be 7f 8b c0 bd
       -0.1605253 -0.10184425 -0.17500025 -0.09401607
000270 ce ae 2d be 9c bc 62 be d7 a5 04 be ba 2d 0f 3d
       -0.16961214 -0.22142261 -0.12953888 0.034955718
000280 22 13 45 bd d3 b0 26 be 69 f7 e4 bd 72 04 8b bd
       -0.04811395 -0.1627839 -0.11180002 -0.06787957
000290 6c 73 0f be c5 29 e4 bd a4 d2 ed bd 54 8d 1f be
       -0.14008874 -0.111407794 -0.11612442 -0.15581256
0002a0 dc ff 22 be b1 ed 0b be 78 f4 f6 bd 7a f2 12 bd
       -0.15917915 -0.13664891 -0.120583475 -0.035875775
0002b0 a8 7d 15 be fc ca 1e be f8 b0 22 be db 51 3c 3b
       -0.14598715 -0.1550712 -0.1588782 0.0028735313
0002c0 af a6 dd bc b6 44 e8 bd 65 a3 0e be 2b 13 ab bd
       -0.02705702 -0.113412306 -0.13929518 -0.083532654
0002d0 d3 c7 4a be 46 a8 db bd 4e 66 33 be fd 92 ae bc
       -0.1980279 -0.10725455 -0.17519495 -0.021310324
0002e0 89 31 70 bd de e3 3e be 0e 25 34 be 82 88 01 bc
       -0.05864099 -0.18641612 -0.1759226 -0.007906081
0002f0 40 34 01 be 26 6a 31 be 24 36 89 bd 75 8d 42 be
       -0.12617588 -0.17325649 -0.0669978 -0.18999274
000300 58 61 3e be 10 9f 0e be 38 90 25 be 21 25 89 bd
       -0.18591821 -0.13927865 -0.16168296 -0.06696535
000310 86 f0 31 be 06 a3 29 bd 2f 1c 83 be 1a d8 2e be
       -0.17376909 -0.041415237 -0.2560744 -0.17074624
000320 f7 4c 9e 3c 13 b4 17 3a 75 b1 89 bd 7c 53 5d bd
       0.01932381 0.0005787026 -0.067233 -0.054034695
000330 1c 8e 23 3e d6 24 84 3d d8 0b 1c 3d 46 98 a6 3c
       0.15972179 0.064523384 0.038097233 0.020336282
000340 b3 0a 00 3e 72 82 b8 bd 9f 78 b3 3c 50 fc c9 3d
       0.12504081 -0.090092555 0.021908103 0.09862578
000350 82 99 ba bc 27 70 12 3b 41 ab 6c bd c0 ff a8 3d
       -0.022778276 0.002234468 -0.057780508 0.082519054
000360 a9 f1 23 3d 89 ab c5 3d b1 26 3a 3d 25 ee 0a be
       0.040025387 0.09651858 0.045447055 -0.13567407
000370 69 76 db bc 5d f2 b5 3d 2c bb 05 3d 42 5d 58 bd
       -0.02678986 0.08884118 0.032649204 -0.052823313
000380 77 e2 8a bd 21 3e 4e 3d 63 05 f5 3c 40 b9 01 bd
       -0.06781476 0.05035222 0.029909795 -0.03167081
000390 7a 48 86 bc cf 17 eb 3c 34 38 c6 bd 8f c0 0b 3e
       -0.016391981 0.028697876 -0.09678689 0.13647674
0003a0 d1 1d 7e 3d 80 e2 25 bd f6 1a aa bd cf 5c af 3d
       0.062040154 -0.04049921 -0.08305924 0.08562624
0003b0 39 99 c3 bc 9c 4e 2f 3d d1 cc 2a 3b 27 8b a5 bd
       -0.023876773 0.042799577 0.0026062021 -0.08083182
0003c0 2f 24 87 bc 3d 64 10 bc 08 9b 75 3c ff b8 b5 bd
       -0.016496746 -0.008812961 0.014990576 -0.08873176
0003d0 52 c2 23 bc dc c9 42 bd 58 5b 8a bd fb aa 18 bc
       -0.00999506 -0.04755579 -0.06755704 -0.009318109
0003e0 b2 36 55 3d 17 7b ff bc 63 f1 8e 3b a9 ce c9 3d
       0.052054115 -0.031186623 0.0043622716 0.098538704
0003f0 bb d9 5f bd aa 89 4d 3d be 69 ac 3c 84 09 a6 3d
       -0.054651003 0.050180115 0.021046516 0.08107284

gru.bias_hh_l0 f4 [300]
000000 70 d5 02 3c 29 0c c6 3d 66 b0 0b 3d 19 cc 44 3d
       0.007985458 0.09670288 0.034103774 0.048046205
000010 1d 80 8f 3c 0c d8 e0 3d 4d 37 51 bc 4f 57 ac 3a
       0.017517144 0.10978708 -0.012769532 0.0013148579
000020 01 3d ff 3d fa d4 41 3d 77 a0 2d 3d e5 04 75 3c
       0.124628074 0.04732225 0.04238936 0.01495478
000030 4c 49 25 3d 89 d0 af 3c a5 68 75 3d f3 08 1a bd
       0.040353104 0.021461742 0.05991425 -0.03760619
000040 df 16 8e bb 16 6a 86 3d 3b 09 09 3e 62 c3 8a 3d
       -0.0043362225 0.06563203 0.13382427 0.067755476
000050 91 21 0e bd 0f 82 cb 3d 74 24 da 3d 44 86 23 bc
       -0.03469998 0.09936916 0.10651484 -0.009980742
000060 23 b2 3e bd 3b cb 89 3d e7 e3 35 bd bb b7 d2 ba
       -0.046556603 0.06728216 -0.044406798 -0.0016076484
000070 40 e4 d0 3d 7e a5 8b 3d e2 78 79 bc 71 88 f4 3b
       0.10199785 0.068186745 -0.015226575 0.007462554
000080 0e c4 8a bd 42 01 fe 3d 78 df de 3d 9a 3d d9 3d
       -0.06775676 0.12402584 0.10882467 0.10607453
000090 0a ec f1 bc e0 a8 0a 38 2e be 98 bd 3c cd ec 3d
       -0.029531498 3.305904e-05 -0.07458149 0.11562583
0000a0 72 3e 2d 3d a6 16 ec bb 46 a3 1a 3e e8 fe e7 bc
       0.04229588 -0.0072048483 0.15101346 -0.028319791
0000b0 d7 d8 fb 3d f2 d3 d8 3d 76 bc 9f 3b c1 0f 34 bd
       0.12297218 0.105873 0.004874761 -0.043960337
0000c0 1f f0 b4 3d f8 15 15 3d e1 85 64 3d 8b 51 22 3a
       0.08834862 0.036397904 0.05579174 0.00061919604
0000d0 8c e5 0c 3d a8 b3 47 3d 45 d0 a8 bc a8 1e 02 3d
       0.0343986 0.048755318 -0.020607123 0.031767517
0000e0 f7 29 e3 bc 60 ca bd 3d e4 9a 21 bd 4f 3f 8e 3d
       -0.027729971 0.092671156 -0.039454356 0.06945669
0000f0 eb 1e 9f 3c b7 c3 07 bd 2f 0c bc bc 59 63 8c bc
       0.019423923 -0.033145633 -0.022955028 -0.017137216
000100 1a 51 8f bc f7 da 84 bd 70 07 b1 3d 9c f4 ee bb
       -0.017494727 -0.06487077 0.08643997 -0.0072923433
000110 3b 00 15 bd 6f 3b 5d 3d 36 ab 7a 3d db 27 d5 bb
       -0.036377173 0.05401176 0.061198436 -0.0065049953
000120 af e9 29 3d a1 91 de 37 5d 2f 82 3d 39 33 c2 bb
       0.041482624 2.6532276e-05 0.0635669 -0.0059265164
000130 8b ff d7 3d ad 80 da 3c c4 ed c3 bc 34 a9 1e 3e
       0.10546788 0.026672686 -0.023917086 0.15494233
000140 96 12 a4 3d 55 81 8e bd e0 74 eb 3d 82 9e 46 3d
       0.080113575 -0.06958262 0.114969015 0.04849101
000150 28 3c e4 3c e8 8f 36 bd 74 18 9f bc 8e 0a 28 bd
       0.027860716 -0.044570833 -0.01942084 -0.04102569
000160 eb 1e 40 3d b7 03 ba 3d 50 76 2f bd 00 4f dc 3d
       0.046904486 0.0908274 -0.04283744 0.107572556
000170 47 10 e8 3d 90 96 94 bc 92 82 86 3d 88 e3 83 bd
       0.1133123 -0.0181382 0.06567873 -0.064398825
000180 dc a6 bb bc 87 16 7b 3d ea 23 9b bd b2 bc d1 3c
       -0.022906713 0.06130078 -0.075752094 0.025602672
000190 e9 cf 52 be f4 e2 97 b9 f5 10 de bc 7a 6e 2c bd
       -0.20587124 -0.00028970058 -0.027107695 -0.042097546
0001a0 1f 85 52 be 71 1d 84 bd 47 0e 82 bd a4 bf 43 be
       -0.20558594 -0.06450928 -0.063503794 -0.19116074
0001b0 0c a4 b2 bd 1a 94 da bd 70 cd 38 be 17 33 4c be
       -0.08722696 -0.106727794 -0.18047118 -0.19941364
0001c0 4d f7 8b bd ba 79 60 bd b5 dd da bd cd af bd bc
       -0.06834278 -0.054803587 -0.106868185 -0.023155117
0001d0 37 e3 db bd b9 ba 64 be 47 e2 b6 bd 90 f1 7e bd
       -0.10736697 -0.22336854 -0.08929878 -0.06224209
0001e0 ae f2 14 be bb ab 80 bd 11 ec d0 bd 79 b4 17 be
       -0.145457 -0.06282755 -0.10201276 -0.14814939
0001f0 17 f4 8e bd e2 86 1f be 20 b9 e9 bd d1 71 be bd
       -0.0698015 -0.15578797 -0.11412263 -0.092990525
000200 13 e6 85 be 75 5b f6 bd 68 70 d3 3c be 60 16 be
       -0.26152095 -0.12029163 0.025810435 -0.14685342
000210 2f 9a 8f bd 6c 24 13 be 2e b6 30 bd 21 19 56 bd
       -0.0701183 -0.14369363 -0.04314249 -0.05227006
000220 58 ef ed bd 92 46 c9 bd 0d 15 d3 bb 5a bd 02 be
       -0.11617917 -0.09827913 -0.0064417184 -0.12767544
000230 da 31 30 be df b4 29 be 7b 70 f6 bd e8 db c4 bd
       -0.17206517 -0.16572903 -0.12033173 -0.09612256
000240 da fe 8c bd ac c5 53 bd 0f aa 2b be eb e7 36 be
       -0.068845466 -0.051702186 -0.16764091 -0.17861907
000250 c4 73 14 bd 3e 8e 7a be 05 d0 44 be 22 8e 0e be
       -0.036243215 -0.24468324 -0.19219978 -0.13921407
000260 89 05 a8 bd 0f 3a b2 3c 8d 4b 9e bc 81 3d 6d bd
       -0.08204181 0.0217562 -0.019323135 -0.057919983
000270 d2 f0 81 bd 07 95 8a bd cd 48 30 be 8e af 31 bd
       -0.06344761 -0.06766706 -0.17215271 -0.043380313
000280 ff 86 13 be 9b a2 19 bd 8f 64 c5 bd 4f 6f 1f bd
       -0.14406966 -0.03750859 -0.09638321 -0.03892451
000290 e1 7a b8 bc 62 58 99 bc 24 ad dd 3c f4 be 83 bd
       -0.02251953 -0.018718902 0.027060099 -0.06432906
0002a0 36 d7 0f be 75 cc ee bd 56 29 c0 bd c8 9f f3 bd
       -0.1404694 -0.11660091 -0.09382884 -0.1189571
0002b0 34 c4 31 3c 28 6b 33 be 8e 3e 5a be f5 77 1b be
       0.010850001 -0.17521346 -0.21312925 -0.15182479
0002c0 1f 92 d0 bd bc 56 08 be b1 6a 7c bd e1 f9 4f bd
       -0.101841204 -0.13314337 -0.061625186 -0.050775412
0002d0 5a c6 ac bd 71 51 27 be 1a de 1e bd 9a a9 05 be
       -0.0843627 -0.16339661 -0.03878603 -0.13052979
0002e0 67 db 44 bd 47 f3 31 bd 0f 17 fb bd c1 e6 35 bd
       -0.0480608 -0.043444898 -0.122602575 -0.044409517
0002f0 c2 0c 8f 3b 0f f9 1d bd 64 86 d7 3a 15 31 62 be
       0.0043655345 -0.0385676 0.001644325 -0.22089036
000300 8c 17 c5 bd df 42 78 be 7e 1f cf bd 0c 15 ee bd
       -0.09623632 -0.2424426 -0.101134285 -0.11625108
000310 8a c5 46 be 7b d6 28 bd 9f cc 82 be 0c 75 32 be
       -0.19411293 -0.04122017 -0.25546739 -0.17427462
000320 b0 88 ca bd 38 55 70 bd a2 58 8c 3d 52 ec 97 bc
       -0.09889352 -0.05867502 0.06852843 -0.018545303
000330 58 69 02 3e 24 c8 12 bc 89 de a3 bc b3 1d ca 3b
       0.12735498 -0.00895885 -0.020003574 0.006168091
000340 f9 d7 7e 3d 20 30 eb bd f5 50 e2 3c 47 5c 9f 3c
       0.062217686 -0.114837885 0.027626494 0.019453181
000350 98 51 18 3e 15 53 ad 3d 70 39 ff bc 78 8f 8e 3d
       0.14874876 0.08463112 -0.031155318 0.06960958
000360 4c 70 d7 3d 86 01 b8 3b 23 6f 0b 3d dd 0a ce bd
       0.10519466 0.005615416 0.034041535 -0.10060666
000370 fe 82 e5 bd 38 7e 44 3d a9 14 c5 3c 21 ca b5 bc
       -0.112066254 0.047971934 0.024057703 -0.02219111
000380 47 ec a6 bd 9b 1c e4 bc f6 85 9a 3c b5 54 da 3d
       -0.08150535 -0.027845671 0.018862706 0.10660688
000390 fc 18 0b bd 0d 1e 24 3c 24 0c 8b bd 5a b6 1e 3e
       -0.033959374 0.01001693 -0.06789425 0.15499249
0003a0 01 72 c3 bc 33 55 98 bc ef b9 90 bd a7 b9 1d 3c
       -0.023858072 -0.018595314 -0.07066714 0.0096267825
0003b0 0d 10 50 ba 03 62 94 bd 19 67 b0 bd 93 ae b7 bd
       -0.0007936962 -0.07245257 -0.08613414 -0.08968844
0003c0 ca 86 d8 3b 03 fd da 3c b0 53 31 3d 5a 68 a8 bc
       0.006607865 0.026731974 0.0432927 -0.020557571
0003d0 95 88 38 bd 56 86 0d 3e 3e 3b 3b bd 53 83 86 3d
       -0.04505213 0.13820776 -0.045710795 0.06568017
0003e0 ef 7f 10 3c 8c 0d 22 3e 3b 88 3b 3e 94 ca 7a 3d
       0.008819564 0.1582548 0.18313687 0.06122835
0003f0 a2 a1 d2 bd b2 b5 3f be d6 a2 1e 3e df bf 17 3d
       -0.10284735 -0.18721655 0.15491804 0.037048217

gru.weight_ih_l1 f4 [300, 100]
000000 fa 73 8c 3d 87 c5 cb 3d 15 91 89 bd ee 04 8c 3e
       0.06858058 0.09949785 -0.06717125 0.2734751
000010 2e 64 9b 3d 10 81 1c 3e 7c 0a f4 3c 9d 7a b4 3d
       0.07587467 0.15283608 0.029790156 0.08812449
000020 72 e5 25 bd ae 90 72 be 40 b0 00 3d a3 28 cd 3d
       -0.04050202 -0.23688003 0.031418085 0.100175165
000030 d0 e9 55 3d 88 bb a6 bc 35 b1 07 3e d9 db 29 3d
       0.052224934 -0.020353094 0.13251193 0.04146943
000040 66 a8 23 bd ad cd 81 3d c5 69 83 bd 12 24 8d 3d
       -0.03995552 0.06338058 -0.06416658 0.068916455
000050 b8 bd f5 bc 4f d2 8d 3c f9 9b 06 bd d1 c4 79 3d
       -0.029997692 0.017312197 -0.03286359 0.060978714
000060 6a 57 3b bd 5c 22 73 bc 9f c9 2b be 87 6a a9 3d
       -0.04573766 -0.014839735 -0.16776131 0.082722716
000070 0b ff ae bd b8 ce 2f 3e f7 7e 87 bd 0a 38 22 bc
       -0.08544739 0.171687 -0.066160135 -0.009901056
000080 39 63 05 3e 63 20 12 be 56 77 24 39 ed 28 06 be
       0.13026132 -0.14270167 0.00015684715 -0.1310155
000090 a6 a3 48 3e c9 43 8c 3d ff 40 43 3d 24 e1 95 bd
       0.19593677 0.068488665 0.047669407 -0.07318333
0000a0 0b 73 cb bb 60 9d 59 bd 3d 20 98 bd 0e 73 b0 3d
       -0.0062087825 -0.0531286 -0.07428024 0.08615695
0000b0 7c c3 3c be 22 45 fe 3c 59 6b 78 3d 4d c4 53 3d
       -0.18433946 0.031038824 0.06064925 0.05170088
0000c0 61 ae d2 bd 07 a1 ac 3d fe da 20 3e b6 35 53 bc
       -0.102871664 0.08429151 0.15708539 -0.012891224
0000d0 43 d4 9f bd 3c c1 9a 3d 31 68 91 3c 5c 0b 59 ba
       -0.078041576 0.07556388 0.017749878 -0.0008279586
0000e0 b1 2e bd 3d aa fe 28 bd d8 36 20 bc c4 9e 40 3e
       0.09237421 -0.04125849 -0.009778701 0.18810564
0000f0 9a b9 30 3c a7 48 3e 3c af 4d 40 3e 56 15 a8 bc
       0.010786438 0.011614001 0.18779634 -0.020517986
000100 3d 95 33 bd 84 6c ac bd 89 a6 bd 3d 5e 61 a2 3c
       -0.043843497 -0.08419135 0.0926028 0.019821819
000110 c6 72 45 3d d0 94 30 be c0 e6 d5 bc ec 07 a5 bd
       0.04820516 -0.17244267 -0.026111007 -0.080581516
000120 29 e0 61 3d dd 75 44 bb e9 0b 9f bd b7 57 0a be
       0.055145416 -0.0029977479 -0.077659436 -0.13510023
000130 31 51 0e bd 3c c8 16 bd f1 09 ed bd f4 d9 11 3e
       -0.0347454 -0.036812052 -0.11574162 0.14243299
000140 74 16 3b 3b 2f ad bb bd ea e2 fa bd 5d 11 1e bd
       0.0028547319 -0.091638915 -0.12250312 -0.038590778
000150 33 09 26 3d d8 51 5d bd 9e 52 d5 bd b9 6e d1 bd
       0.040536117 -0.05403313 -0.104161486 -0.10226197
000160 9a 32 25 bd 36 c4 8a 3d b6 3b ab 3d b4 db ef bd
       -0.04033146 0.067757055 0.08360998 -0.11711827
000170 6a 53 ea bc c6 84 d7 bc f2 4f 32 bd bf 45 d0 3c
       -0.028604228 -0.026308428 -0.043533273 0.025423883
000180 8a d9 9b 3d 11 9e ec 3d c1 f4 f2 3d 4d ad 0c 3e
       0.07609852 0.11553586 0.11863089 0.13737984
000190 d2 fa 70 3c b0 ef 3d 3c 71 53 97 3d 6b 5d bd bc
       0.014708238 0.0115927905 0.07388962 -0.023115834
0001a0 9d 60 99 bd 0f 15 c4 bd b4 64 80 3d 36 f8 18 bd
       -0.07489131 -0.09574329 0.062692076 -0.037346087
0001b0 13 e6 a6 3d be 3d b8 3d 38 b8 d2 3c f8 eb 19 be
       0.08149352 0.089961514 0.025722608 -0.15031421
0001c0 4e 4c 78 bd 89 28 67 3d 04 7f 16 bd 8b 83 f9 3d
       -0.060619645 0.05643514 -0.036742225 0.12183293
0001d0 20 59 42 3d b4 81 c0 3c ac e5 a7 bd af 60 8a 3d
       0.047448277 0.023499347 -0.08198103 0.06756722
0001e0 0e 58 ba 3d be 73 3c b9 06 1b 6b 3c 39 08 11 be
       0.09098826 -0.00017972194 0.014349705 -0.14163293
0001f0 2d b5 39 bd db 5e 29 bd 8a 7d d2 3d e2 09 ae bd
       -0.0453388 -0.041350227 0.10277851 -0.08497979
000200 a9 13 68 3d 9a 9e b4 bd 29 a2 4d bd 1f d9 17 be
       0.056659374 -0.08819313 -0.050203476 -0.14828919
000210 fa 8d cd 3c bf 3e 52 bc ca 72 fb bd 79 4b 44 bd
       0.025092114 -0.012832343 -0.12277754 -0.04792354
000220 52 09 10 be 01 75 9d 3d 3b e7 b7 3b 95 fb 9c 3d
       -0.14066055 0.07688332 0.0056122816 0.07665173
000230 74 fd 1b 3d dd 99 94 3d b5 a8 03 3c ca 38 4f 3c
       0.03808351 0.072559096 0.008035828 0.012647817
000240 66 a7 aa 3d 3d 83 5b 3d 91 01 a5 3c b9 43 cf 3c
       0.0833271 0.053591955 0.020142348 0.025300847
000250 a1 2b 0d bc 53 53 1d bd 16 5e 1f bd b9 3f 9b 3d
       -0.008616359 -0.038409542 -0.038908087 0.075805135
000260 6a bb d2 3d df c3 f2 3d fe a3 c3 bc 83 7c 40 3e
       0.10289653 0.11853766 -0.023881909 0.18797497
000270 9d 78 66 bd 2f d5 6f 3b 98 99 93 3d 50 77 76 bc
       -0.05626737 0.0036595573 0.0720703 -0.015043095
000280 29 e7 ab bd 3f 97 83 3d c8 5c c6 bd 66 f3 ba 3c
       -0.083937 0.06425332 -0.09685665 0.02282114
000290 a5 dc d6 3c 92 5f 38 3e 0c 3e 03 be ba f7 05 3e
       0.026228258 0.18005207 -0.12816638 0.13082781
0002a0 be 2d 7e bc 14 a9 63 bc 77 e0 18 3e df 29 9a 3d
       -0.0155138355 -0.013895292 0.14929377 0.075275175
0002b0 24 d7 bd bd cd 23 30 3d 2e 9f 8f 3c bf d7 84 3d
       -0.092695504 0.043002892 0.017531957 0.06486463
0002c0 1e ac 2a be 8c 2a 29 be b5 9c 5c be 66 34 03 be
       -0.1666722 -0.16520137 -0.21544154 -0.12812957
0002d0 25 90 b0 38 ab f2 8a 3d f1 58 07 bd 55 5c 36 3b
       8.419183e-05 0.067845665 -0.033043806 0.002782603
0002e0 17 31 21 bd 4f f9 8c bd 3b 77 9d 3d af d6 5e 3d
       -0.039353456 -0.06883489 0.07688757 0.054403957
0002f0 60 48 36 be a2 68 e3 bd c5 9f 00 bd 5a cc ad bc
       -0.17801046 -0.111039415 -0.031402368 -0.021215606
000300 8d 45 69 3d 94 98 53 3d 86 c2 ac bd b6 5d 08 bd
       0.056951094 0.05165918 -0.0843554 -0.033292495
000310 72 c4 b5 3c 3b a5 0d 3d 76 a4 5c 3d 5c 2d 09 be
       0.022188399 0.034581404 0.05386778 -0.1339621
000320 f7 5a aa 3d fa d6 94 3d 25 a3 49 bd e9 e3 9f 3d
       0.083181314 0.07267566 -0.049227852 0.07807142
000330 96 99 93 bd 3b 5f 2d 3c 89 79 f6 3c 5b 3f 57 bd
       -0.072070286 0.010581787 0.03008725 -0.052550655
000340 1f fb e3 3b 6d 30 c4 3d 15 7a 1d 3d f2 99 d3 bc
       0.006957426 0.09579549 0.038446505 -0.025830243
000350 25 a5 03 bd 5d 1b 0d 3e 2f b3 69 bd 15 23 35 3d
       -0.032139916 0.1377997 -0.05705565 0.04422291
000360 98 4e c9 3d fa 20 61 3c 31 53 e7 3c 8f 27 23 bd
       0.09829444 0.013740772 0.028237911 -0.039832648
000370 7f f1 b7 3a 25 b7 85 3d 5b 3c d3 bd 67 6b fb 3d
       0.0014033763 0.06529073 -0.10314246 0.12276345
000380 4d 9a 55 3b 72 8d 66 3d b5 12 de bd 7a 84 3f bd
       0.003259319 0.056287237 -0.10843412 -0.0467572
000390 c1 5b cb 3d b3 06 27 3d d9 52 00 bd b4 03 d1 bd
       0.0992961 0.040777873 -0.03132901 -0.102057844
0003a0 b0 85 7d 3d 0a 35 7c bd dd f0 ba 3d df 6f 7e 3e
       0.061895072 -0.06157402 0.09127972 0.24847363
0003b0 03 5a 35 3d 3f 66 5c 3c 7e 2c 41 3d a8 c7 19 be
       0.044275295 0.013452112 0.04716157 -0.15017569
0003c0 99 7b b1 bc 61 89 89 3d 6f 4e 7a bd 44 d2 ab bd
       -0.021665381 0.06715656 -0.061109956 -0.08389714
0003d0 b0 9c 22 3e 15 4c 2b 3d 64 06 ce 3d 16 67 f8 bd
       0.15880084 0.041820604 0.10059813 -0.12129037
0003e0 6b ca e5 bd 74 84 8e bd 53 62 c7 bd ce 61 19 3d
       -0.11220249 -0.06958857 -0.09735551 0.03744679
0003f0 90 c1 4e 3c 42 6d aa bd 72 ed 8b 3d 06 cb bf bc
       0.012619391 -0.083216205 0.068323985 -0.023412239

gru.weight_hh_l1 f4 [300, 100]
000000 e2 aa f0 3d f4 54 57 bd a7 95 b9 bc d4 c7 ff bd
       0.11751343 -0.052571252 -0.022654368 -0.12489286
000010 31 a3 ca bd 68 24 a1 bd 71 a1 3c 3d 1c 11 cd 3d
       -0.098944075 -0.07868272 0.0460524 0.10013029
000020 1a e5 c6 bd b2 f4 27 bd 97 dc 7a 3d 10 94 da 3d
       -0.097116664 -0.041004844 0.061245527 0.10672772
000030 90 0d 8c bc 74 31 08 bc 57 9b e6 bd 07 fd e0 3c
       -0.01709631 -0.008312572 -0.112600975 0.027464403
000040 2f 46 e4 3c 96 20 49 bc fa 63 3c bc ea 27 b6 bb
       0.027865497 -0.0122758355 -0.011498446 -0.0055589573
000050 31 03 7d 3c 4a 72 9d bc 57 d3 bd 3c a9 44 24 3d
       0.015442655 -0.019219536 0.023172064 0.040104542
000060 cb 77 cd bc 22 16 10 3d c8 55 d9 bd 10 ea bf bc
       -0.025081536 0.035177357 -0.106120646 -0.02342704
000070 07 d9 1a 3e a9 77 56 3d 8a 95 f3 3c cd 74 9f bc
       0.15121852 0.05236021 0.029734392 -0.019464875
000080 70 50 1a 3e f5 29 33 bd 04 f1 11 3d ac e1 31 3b
       0.15069747 -0.043741185 0.03563024 0.0027142568
000090 6c aa 84 bd b9 f4 d0 bd b1 ce 95 bd 59 f8 10 3e
       -0.06477818 -0.10202927 -0.07314814 0.14157237
0000a0 c4 2b 93 bd 64 b7 c4 bd 35 a5 5b 3d a2 8c ac 3d
       -0.07186082 -0.096052915 0.05362435 0.08425261
0000b0 bf 3a 80 3d c6 4c ab bd 52 37 e8 3b c4 71 0f 3e
       0.06261205 -0.08364253 0.007086673 0.14008242
0000c0 cf ea 7a bc 83 35 19 be 6b 36 a6 3d 3e 79 b7 bd
       -0.015314772 -0.1496182 0.08115848 -0.08958672
0000d0 01 6a ad bd 0a 64 e0 3d f8 d0 09 3e 4d 06 a3 bc
       -0.08467484 0.10956581 0.13458622 -0.019900465
0000e0 82 00 64 bd e4 a8 64 bd 31 9c ef bd 82 7a 9c 3b
       -0.055664547 -0.05582513 -0.11699713 0.0047753463
0000f0 1f ce 23 3d ef a5 3e 3d 31 d5 ae bb 87 9e 29 3b
       0.039991494 0.046544965 -0.005335473 0.0025881843
000100 cb 46 4b 3d f1 a4 65 3d 8e 8f 35 bd 09 b0 b6 3d
       0.04962806 0.056065504 -0.044326358 0.08920295
000110 88 85 c7 bd 21 8d c3 3d a0 7b 9a 3b 75 1d 7f 3c
       -0.09742266 0.095484026 0.0047144443 0.015570988
000120 11 63 a9 3d 9d 4a 71 bd a5 57 01 3e 17 90 2c bc
       0.082708485 -0.058909047 0.1263109 -0.010532401
000130 9a 7c 45 3c 19 6e a8 bd 66 37 3d 3d 9c bf d7 3d
       0.012053633 -0.082241245 0.04619541 0.105345935
000140 b2 d1 6e bc 34 f9 89 bd 40 22 db bc af 55 a0 bc
       -0.014576362 -0.06736985 -0.02674973 -0.019572107
000150 bd 16 d2 bd 22 c5 80 3d 57 5c c9 3d 4e 1c eb bd
       -0.10258243 0.062876 0.098320656 -0.11480008
000160 be 4b 80 bb b1 97 6c bc 1d 84 9a bd 06 c0 6d 3d
       -0.003915279 -0.014440463 -0.0754473 0.058044456
000170 be a9 1b be d4 d5 e3 3c 2c ae 4a bd 0a 9d 1f bd
       -0.1520147 0.027811922 -0.04948251 -0.038968123
000180 74 3a 2b bc cb 45 0a 3d 3e 90 d1 ba 09 29 f6 3a
       -0.010450948 0.033757966 -0.0015988422 0.001878054
000190 71 4b 19 bd 5e 22 51 3d d9 bd 3d 3d 7a 54 e1 3d
       -0.037425462 0.051058166 0.04632363 0.11002441
0001a0 7d 71 1d bd 4c 6b 67 3d 8f 69 75 bd f9 ae 25 3e
       -0.03843831 0.05649881 -0.05991512 0.16180028
0001b0 de ed 1c bc 01 81 5a bd 08 08 6b 3a 06 11 86 bd
       -0.009578196 -0.053345684 0.00089657353 -0.06546216
0001c0 19 c3 d8 3d 95 42 a4 bc 2e 8a 96 3d 2d ec 9c bc
       0.10584087 -0.02005128 0.073505744 -0.019155586
0001d0 71 30 15 bd b6 40 36 bd f8 7b c9 bd ab f5 6a 3c
       -0.03642315 -0.044495307 -0.09838098 0.014340798
0001e0 fa 52 a0 3d 07 58 3f bd 66 b6 fe 3d 75 07 9a bd
       0.078283265 -0.04671481 0.124371335 -0.075209536
0001f0 8a 54 59 3d 1e 19 b6 bd bc 02 65 bc a6 09 57 3d
       0.05305914 -0.088915095 -0.013977703 0.052499436
000200 4a 45 e2 bc cc fd ea bd 03 37 26 3c 8d b9 d6 3d
       -0.02762093 -0.11474189 0.010144952 0.1048461
000210 7a dd 9e bd 1d 09 cc 3b 32 f2 b7 3d fc d9 77 3c
       -0.07757087 0.0062266723 0.08981742 0.015127655
000220 57 69 48 bc 61 54 81 bc 8a 8c 16 3d 38 4d e8 3c
       -0.012232146 -0.015787305 0.036755122 0.028357133
000230 e1 9d 8c bb 61 bd 2e bd 9a 9e 67 3c d0 c9 4c 3d
       -0.0042912816 -0.042661075 0.014136935 0.04999715
000240 4a 32 39 bd 83 52 4e 3d d6 21 c3 bd e6 42 b5 bd
       -0.045213975 0.050371658 -0.09527938 -0.088506505
000250 5a 22 ff bb db ce be bd 5c 4f d6 bd 5f 71 4d 3c
       -0.0077860774 -0.09316798 -0.10464355 0.012539237
000260 73 24 1d 3d c4 96 94 bd 8d 4a f2 bd 5c 15 9a bd
       0.03836484 -0.07255319 -0.11830626 -0.07523605
000270 76 41 49 3d c6 90 4e 3d 39 4a 96 3d 9f 89 95 bd
       0.049134694 0.050431035 0.073383756 -0.0730164
000280 0c 24 8a 3d 60 0b 1a bd a0 21 31 bb d3 87 e4 3d
       0.06745157 -0.037608504 -0.0027028099 0.11158719
000290 4d 5f 71 3d ce 7b d5 bc 23 4c 61 bd 9e 6d bc 3d
       0.058928777 -0.026060011 -0.05500425 0.09200595
0002a0 db 3e 4c 3d 4b b5 ee 3c bd d3 e8 3d b5 dd 00 be
       0.04986463 0.029139182 0.11368511 -0.12584575
0002b0 44 37 03 bd 3f ba 85 bd 0a c3 fe bd 5d 98 1e 3d
       -0.032035127 -0.06529664 -0.124395445 0.038719524
0002c0 d8 a8 43 3d 24 91 92 3b 01 34 2e 3d d9 df 70 3d
       0.047768444 0.0044728685 0.042530064 0.058807228
0002d0 75 1b 27 3d 6f 98 65 3b 6f 84 7a 3d 91 37 09 3e
       0.04079767 0.0035033484 0.061161455 0.13400103
0002e0 da bf d6 3d 16 22 00 bd 24 a5 7d 3d 9e 75 bf bd
       0.104858115 -0.031282507 0.06192507 -0.093486056
0002f0 2b d8 ad 3d 41 e8 1b bd 26 a1 e5 bd 60 cc 9a bd
       0.084884964 -0.03806329 -0.11212377 -0.07558513
000300 da 61 c5 3a d2 ed a8 3c 7d 84 84 3d 98 7e 90 bd
       0.0015059069 0.020621214 0.06470583 -0.07055396
000310 f6 4b e4 3d 24 eb 83 3d a3 48 d6 3d 62 ec 3c bc
       0.11147301 0.06441334 0.10463073 -0.011530967
000320 78 ae 07 bd 36 52 df bd 5d 34 b8 bc e6 04 ea bd
       -0.03312537 -0.10904352 -0.022485906 -0.114267156
000330 61 dc 9f bd e9 50 6d 3c 19 a3 13 bc d5 65 d4 bd
       -0.07805706 0.0144846225 -0.0090110535 -0.103709854
000340 94 97 da bd 8d 9f 5a 3d dc 7f 65 bd 9f 8c 60 3b
       -0.106734425 0.053374816 -0.05603014 0.0034263504
000350 80 b9 bb 3d da 8d 85 bd 1b 02 9b bd ba 19 11 bd
       0.09166241 -0.06521197 -0.07568761 -0.035424925
000360 d5 1e 5f bc ae fd e6 3b b8 e4 c6 bb 7c 12 06 3d
       -0.013618191 0.007049284 -0.006069746 0.03273247
000370 e7 ed fc 3a 3b 23 9a 3d a4 21 06 3e 74 90 3c 3d
       0.0019296975 0.07526251 0.1309877 0.0460362
000380 f5 87 97 3d af eb e3 3c 39 66 3d 3e 7c f0 bc bd
       0.073989786 0.027822344 0.18496026 -0.09225556
000390 1d e4 3c 3d d6 fb 1a bc 72 72 a9 3c a3 a0 53 bd
       0.046115983 -0.009459456 0.020684455 -0.051666867
0003a0 11 32 de 3c 6f 49 65 bc 3f 8a 9c 3d 4b b5 c3 bd
       0.027123483 -0.013994559 0.07643556 -0.09556063
0003b0 b9 11 a8 bd bb 27 07 bd e0 4e 02 bd 4d 63 ed 3b
       -0.08206505 -0.032996874 -0.031813502 0.0072445036
0003c0 a2 20 42 3d 9d 68 cf 3c a5 a1 86 bc 1f bc 6d 3d
       0.047394402 0.025318438 -0.0164345 0.058040734
0003d0 98 85 78 3d 98 2b 8d 3d aa b7 5c 3d b5 c9 09 bd
       0.06067428 0.068930805 0.053886093 -0.03363963
0003e0 4f 26 2a bd d2 58 df 3c 3d e4 08 bd 75 af 92 bc
       -0.04154044 0.027264033 -0.03342079 -0.01790593
0003f0 88 ed d5 3d 22 2b 4f 3d b9 52 8e bd f5 c4 8c 3d
       0.10445696 0.050578244 -0.06949372 0.06873504
